----------------------------------------------------------------
        Layer (type)               Output Shape         Param #
================================================================
            Conv2d-1           [-1, 16, 32, 32]           1,216
              ReLU-2           [-1, 16, 32, 32]               0
         MaxPool2d-3           [-1, 16, 10, 10]               0
            Conv2d-4           [-1, 32, 10, 10]          12,832
              ReLU-5           [-1, 32, 10, 10]               0
         MaxPool2d-6             [-1, 32, 3, 3]               0
            Conv2d-7             [-1, 64, 3, 3]          51,264
              ReLU-8             [-1, 64, 3, 3]               0
         MaxPool2d-9             [-1, 64, 1, 1]               0
           Linear-10                  [-1, 256]          16,640
             ReLU-11                  [-1, 256]               0
           Linear-12                  [-1, 128]          32,896
             ReLU-13                  [-1, 128]               0
           Linear-14                   [-1, 64]           8,256
             ReLU-15                   [-1, 64]               0
           Linear-16                   [-1, 10]             650
================================================================
Total params: 123,754
Trainable params: 123,754
Non-trainable params: 0
----------------------------------------------------------------
Input size (MB): 0.01
Forward/backward pass size (MB): 0.33
Params size (MB): 0.47
Estimated Total Size (MB): 0.81
----------------------------------------------------------------
New best model saved at epoch 1 with Test Accuracy: 0.4055
…
