----------------------------------------------------------------
        Layer (type)               Output Shape         Param #
================================================================
            Conv2d-1           [-1, 16, 32, 32]           1,216
              ReLU-2           [-1, 16, 32, 32]               0
         MaxPool2d-3           [-1, 16, 16, 16]               0
            Conv2d-4           [-1, 32, 16, 16]          12,832
              ReLU-5           [-1, 32, 16, 16]               0
         MaxPool2d-6             [-1, 32, 8, 8]               0
            Conv2d-7             [-1, 64, 8, 8]          51,264
              ReLU-8             [-1, 64, 8, 8]               0
         MaxPool2d-9             [-1, 64, 4, 4]               0
           Linear-10                  [-1, 512]         524,800
             ReLU-11                  [-1, 512]               0
           Linear-12                  [-1, 256]         131,328
             ReLU-13                  [-1, 256]               0
           Linear-14                  [-1, 128]          32,896
             ReLU-15                  [-1, 128]               0
           Linear-16                   [-1, 64]           8,256
             ReLU-17                   [-1, 64]               0
           Linear-18                   [-1, 10]             650
================================================================
Total params: 763,242
Trainable params: 763,242
Non-trainable params: 0
----------------------------------------------------------------
Input size (MB): 0.01
Forward/backward pass size (MB): 0.51
Params size (MB): 2.91
Estimated Total Size (MB): 3.43
----------------------------------------------------------------
New best model saved at epoch 1 with Test Accuracy: 0.3664
…
