----------------------------------------------------------------
        Layer (type)               Output Shape         Param #
================================================================
            Conv2d-1           [-1, 16, 32, 32]           1,216
              ReLU-2           [-1, 16, 32, 32]               0
         MaxPool2d-3           [-1, 16, 16, 16]               0
            Conv2d-4           [-1, 32, 16, 16]          12,832
              ReLU-5           [-1, 32, 16, 16]               0
         MaxPool2d-6             [-1, 32, 8, 8]               0
            Linear-7                  [-1, 128]         262,272
              ReLU-8                  [-1, 128]               0
            Linear-9                   [-1, 64]           8,256
             ReLU-10                   [-1, 64]               0
           Linear-11                   [-1, 10]             650
================================================================
Total params: 285,226
Trainable params: 285,226
Non-trainable params: 0
----------------------------------------------------------------
Input size (MB): 0.01
Forward/backward pass size (MB): 0.42
Params size (MB): 1.09
Estimated Total Size (MB): 1.52
----------------------------------------------------------------
New best model saved at epoch 1 with Test Accuracy: 0.4969
…
