----------------------------------------------------------------
        Layer (type)               Output Shape         Param #
================================================================
            Conv2d-1           [-1, 64, 32, 32]           4,864
              ReLU-2           [-1, 64, 32, 32]               0
         MaxPool2d-3           [-1, 64, 16, 16]               0
            Conv2d-4           [-1, 64, 16, 16]         102,464
              ReLU-5           [-1, 64, 16, 16]               0
         MaxPool2d-6             [-1, 64, 8, 8]               0
            Conv2d-7             [-1, 64, 8, 8]         102,464
              ReLU-8             [-1, 64, 8, 8]               0
         MaxPool2d-9             [-1, 64, 4, 4]               0
           Linear-10                  [-1, 256]         262,400
             ReLU-11                  [-1, 256]               0
           Linear-12                  [-1, 128]          32,896
             ReLU-13                  [-1, 128]               0
           Linear-14                   [-1, 64]           8,256
             ReLU-15                   [-1, 64]               0
           Linear-16                   [-1, 10]             650
================================================================
Total params: 513,994
Trainable params: 513,994
Non-trainable params: 0
----------------------------------------------------------------
Input size (MB): 0.01
Forward/backward pass size (MB): 1.48
Params size (MB): 1.96
Estimated Total Size (MB): 3.46
----------------------------------------------------------------
New best model saved at epoch 1 with Test Accuracy: 0.4699
…
