----------------------------------------------------------------
        Layer (type)               Output Shape         Param #
================================================================
            Conv2d-1           [-1, 32, 32, 32]           2,432
              ReLU-2           [-1, 32, 32, 32]               0
         MaxPool2d-3           [-1, 32, 16, 16]               0
            Conv2d-4           [-1, 32, 16, 16]          25,632
              ReLU-5           [-1, 32, 16, 16]               0
         MaxPool2d-6             [-1, 32, 8, 8]               0
            Conv2d-7             [-1, 32, 8, 8]          25,632
              ReLU-8             [-1, 32, 8, 8]               0
         MaxPool2d-9             [-1, 32, 4, 4]               0
           Linear-10                  [-1, 256]         131,328
             ReLU-11                  [-1, 256]               0
           Linear-12                  [-1, 128]          32,896
             ReLU-13                  [-1, 128]               0
           Linear-14                   [-1, 64]           8,256
             ReLU-15                   [-1, 64]               0
           Linear-16                   [-1, 10]             650
================================================================
Total params: 226,826
Trainable params: 226,826
Non-trainable params: 0
----------------------------------------------------------------
Input size (MB): 0.01
Forward/backward pass size (MB): 0.75
Params size (MB): 0.87
Estimated Total Size (MB): 1.62
----------------------------------------------------------------
New best model saved at epoch 1 with Test Accuracy: 0.4442
…
